…
2024-01-03 06:55:39.429 | INFO     | src.neumf:__init__:63 - CREATE NEUMF MODEL LAYERS
2024-01-03 06:55:39.436 | INFO     | src.neumf:weight_initialization:125 - INITIALIZE NEUMF LAYERS WEIGHT
2024-01-03 06:55:39.441 | INFO     | src.neumf:__init__:83 - MLP MODEL LAYERS CREATED
2024-01-03 06:55:39.443 | INFO     | src.utils:detect_cuda:60 - DETECTING CUDA DEVICE
2024-01-03 06:55:39.444 | INFO     | src.utils:detect_cuda:66 - NO CUDA DEVICE DETECTED, USING CPU INSTEAD
2024-01-03 06:55:39.450 | INFO     | src.neumf:__init__:50 - FINISH INITIALIZING MODEL NEUMF
=================== GMF MODEL ===================
GeneralizeMatrixFactorization(
  (user_layer): Embedding(6040, 8)
  (item_layer): Embedding(3706, 8)
  (linear_layer): Linear(in_features=8, out_features=1, bias=False)
  (sigmoid_layer): Sigmoid()
)
=================== MLP MODEL ===================
MultiLayerPerceptron(
  (user_layer): Embedding(6040, 8)
  (item_layer): Embedding(3706, 8)
  (fc_layers): Sequential(
    (0): Linear(in_features=16, out_features=32, bias=True)
    (1): ReLU()
    (2): BatchNorm1d(32, eps=1e-05, momentum=0.1, affine=True, track_running_stats=True)
    (3): Linear(in_features=32, out_features=16, bias=True)
    (4): ReLU()
    (5): BatchNorm1d(16, eps=1e-05, momentum=0.1, affine=True, track_running_stats=True)
    (6): Linear(in_features=16, out_features=8, bias=True)
    (7): ReLU()
    (8): BatchNorm1d(8, eps=1e-05, momentum=0.1, affine=True, track_running_stats=True)
  )
  (linear_layer): Linear(in_features=8, out_features=1, bias=False)
  (sigmoid_layer): Sigmoid()
)
...
  )
  (linear_layer): Linear(in_features=16, out_features=1, bias=False)
  (sigmoid_layer): Sigmoid()
)
Output is truncated. View as a scrollable element or open in a text editor. Adjust cell output settings...

 
 
 
 
 
 
 
 

 
 
 
 



2024-01-03 06:56:16.649 | INFO     | src.utils:train_model:163 - CREATING DATA TRAIN LOADER | EPOCH 0 | NEGATIVE INTERACTION : 4 | BATCH SIZE : 1024
2024-01-03 07:00:35.192 | INFO     | src.utils:train_model:165 - DATA LOADER DONE, START TRAINING MODEL EPOCH 0
…
